hw2_docker_bonus/mf.pt (torch, 471233 bytes, 2 tensors)

user.weight f4 [6687, 10]
000000 6c 48 d9 3e f2 88 5b 3e 75 9b 28 bf fb e7 8e bf
       0.42438066 0.21438959 -0.6586221 -1.1164545
000010 0b 83 4f 3f 8a 47 30 bf 9f 80 15 bf b8 3e 6c be
       0.8105933 -0.6885916 -0.58399385 -0.230708
000020 a2 0e 1e be af 8a 3a bf 21 9d 84 be b1 a1 85 be
       -0.1543527 -0.72867864 -0.2590113 -0.26099923
000030 18 10 af bf ff bf 82 bf 4e 35 2b bf 76 f6 c0 3e
       -1.3676786 -1.0214843 -0.6687821 0.37688035
000040 3e 2a ea 3e be 41 a7 3f 2e 34 b3 3f 81 2d 3e 3e
       0.45735353 1.3066938 1.4000299 0.18572046
000050 af ad 8c 3f 64 05 88 3f 19 71 b2 3f ef 4c 65 3f
       1.0990504 1.0626645 1.3940765 0.89570516
000060 42 b9 ae 3d 57 3f 87 bf 4d 98 01 bd 56 1a 39 be
       0.08531429 -1.0566205 -0.031639386 -0.18076453
000070 4f 38 81 be e2 fb 8c be ba 13 c3 3f 8c 33 21 bf
       -0.25238273 -0.2753592 1.5240395 -0.6296928
000080 e0 00 84 3f 4e 13 c4 3f 8a be 5a 3f ea 13 1e bf
       1.0312767 1.5318391 0.8544699 -0.61749136
000090 b2 5a c7 3e bc 85 ee 3e df 14 bb 3f 00 b4 c7 be
       0.38936383 0.46586406 1.4615744 -0.39004517
0000a0 df 83 26 3f 37 33 8d 3f f7 27 6c 3f ac ed 2b 3f
       0.6504497 1.1031255 0.9224848 0.67159534
0000b0 46 51 20 bf b9 1c 46 bf 45 d7 92 3d 1e 4f 60 be
       -0.62624013 -0.7738758 0.07169966 -0.21905181
0000c0 8b 6f bc 3f 26 56 74 bf c3 e3 00 3f 9d 29 be 3e
       1.472154 -0.9544395 0.50347537 0.37141123
0000d0 0d 24 fe 3f 33 ba f6 3f 7f 57 87 3f 83 a7 48 be
       1.9854752 1.9275573 1.0573577 -0.1959515
0000e0 a5 68 a5 bd 4a bf 73 3f 35 2a 1d 3f 85 d3 09 bf
       -0.080766 0.9521376 0.6139253 -0.5383838
0000f0 34 7c 68 3f ea 01 5f 3e 59 2b f3 bf dc ca 24 c0
       0.9081452 0.21778074 -1.8997604 -2.5748816
000100 a1 33 16 40 d8 01 28 bf 66 85 2e 3d 3b 97 9e bf
       2.3469012 -0.65627813 0.042607687 -1.2389902
000110 50 a5 b8 be 7b a4 10 bf d1 7d 63 be 34 59 a1 bf
       -0.36063623 -0.5650098 -0.22215964 -1.2605348
000120 28 47 e3 3e 40 4a a9 3f 3c 9b d4 bf dc 12 79 3e
       0.44390225 1.3225784 -1.6609874 0.243236
000130 fc 33 8b 3e 4b 69 c6 be 35 ab 11 bf 00 cf b8 3e
       0.27188098 -0.38752207 -0.56901866 0.36095428
000140 17 ce 6c 3f 33 85 0e be 80 85 0f 3e 46 1e f5 3d
       0.9250197 -0.13917999 0.1401577 0.11968665
000150 bc a5 94 bf 7a cd b1 3e 56 c8 1f bf 59 44 a5 bf
       -1.1613078 0.3472708 -0.62415063 -1.2911483
000160 3c d1 12 c0 5e 6f c9 3f ea e9 61 be 6a 50 52 3f
       -2.2940207 1.5737112 -0.22061887 0.8215395
000170 c2 bc a5 3f a9 72 84 3d c6 e0 86 be 63 88 73 bf
       1.2948229 0.06467182 -0.26343364 -0.95129985
000180 fd 24 50 bf 35 20 28 bf 8e d9 e2 bd 49 29 81 3e
       -0.8130644 -0.65674144 -0.110766515 0.2522681
000190 f0 8a 00 be 38 07 39 3f 8a 54 45 bf 15 32 65 bf
       -0.12553 0.7227664 -0.7708212 -0.89529544
0001a0 22 52 9e 3d 04 97 5a 3f 53 f9 c5 3e fe fa 9a bf
       0.07730509 0.8538668 0.38666782 -1.2107847
0001b0 c0 86 bb bf 16 4d 41 bf 98 99 3d bc ad 35 4b 3f
       -1.4650497 -0.7550825 -0.011572264 0.7937878
0001c0 e5 16 30 3e 8c ca dc 3e 04 e2 5f bf 4c c6 b8 3f
       0.17196234 0.4312328 -0.8745425 1.4435515
0001d0 b1 19 ba 3e 24 ee 9e bf fa 1f 90 be 06 97 e1 3e
       0.36347726 -1.2416425 -0.28149396 0.44060534
0001e0 a5 e0 c3 3e b6 dd ea bd 09 a3 04 bf 84 42 3b 3f
       0.38257328 -0.11468069 -0.5181127 0.7314837
0001f0 7a 18 05 be 99 a8 6b bf 6c 09 a5 3e ca 06 a8 3b
       -0.12997618 -0.92054135 0.3223375 0.0051277624
000200 90 c1 93 3f 3b 26 8b 3f 27 d8 e6 bf 20 cb 8a 3f
       1.1543446 1.0871042 -1.8034714 1.0843239
000210 1f f2 c2 3f 46 ba 3c bf a2 a4 32 3f 48 35 0c bf
       1.523014 -0.7372173 0.6978246 -0.547688
000220 a2 1e 82 be 3d 64 71 3f da 63 ab be c8 33 8e 3d
       -0.25413996 0.94293576 -0.33474618 0.0694347
000230 aa 76 13 bf 14 a1 d1 3e 6c e1 0d be 4f 35 10 3f
       -0.5760294 0.40943205 -0.13855523 0.5633134
000240 b8 f7 9d bf a4 fd 8b bf 4c bc ae bf 11 c5 a8 3e
       -1.2341223 -1.093678 -1.3651214 0.3296285
000250 f4 9a a4 bf 33 55 9b be 80 07 5f 3f 14 af b4 3f
       -1.2859788 -0.3033844 0.8712082 1.411593
000260 15 0f 12 bf 73 66 83 3e f5 0a a6 bd bd 2a b5 3f
       -0.57054263 0.256641 -0.08107559 1.4153668
000270 f7 d7 77 bf c7 56 59 3e b8 ed 4e bf bf 79 af bf
       -0.9681391 0.21224509 -0.8083148 -1.3709029
000280 fa 9f 12 3e df 3c 09 3f 5f a0 8b 3f 79 22 a9 bf
       0.14318839 0.53608507 1.0908316 -1.3213645
000290 51 e4 ad 3f a2 d9 d1 bd a8 ae 1f bf e5 c0 ba 3f
       1.3585302 -0.10246588 -0.6237588 1.4590117
0002a0 90 b1 ef be 10 88 c7 3e 31 c8 2e 3f 68 80 96 3f
       -0.46815157 0.38970995 0.6827422 1.1757936
0002b0 29 f9 60 3f 8b 38 1c 40 4a 02 de bf ee e1 a5 3d
       0.8788019 2.440951 -1.7344449 0.08099733
0002c0 d3 e3 c4 3f a1 13 a0 bf 17 54 be 3d ed 98 8b 3d
       1.5382026 -1.250599 0.092933826 0.06816278
0002d0 6c 68 d8 3f 26 62 b9 bf 18 65 45 3f b0 a2 d3 bf
       1.6906867 -1.4483078 0.7710738 -1.6534023
0002e0 d5 fe f7 bd 30 70 1c bf fd fb 05 c0 e8 26 e2 be
       -0.12109152 -0.61108685 -2.0935051 -0.44170308
0002f0 61 0f 6f 3f f0 0e 66 bf d9 93 8f bf 26 49 83 3e
       0.9338284 -0.8986654 -1.1216995 0.25641745
000300 93 2d 9d bf 44 5b 13 3f 3d f0 68 3f b0 33 72 3f
       -1.2279533 0.57561135 0.90991575 0.9461012
000310 dd b7 a5 3d 28 4a ac 3d ca f4 80 be 2f f9 1c bf
       0.0809171 0.08412582 -0.2518676 -0.61317724
000320 15 40 a7 bf 10 12 48 3f 86 58 08 3f f0 33 c6 bf
       -1.3066431 0.7815256 0.53260076 -1.54846
000330 3e bf fa bf bc 24 24 bf 2d 69 2e bb 19 bb 7c 3c
       -1.9589612 -0.6411855 -0.0026612983 0.015425467
000340 64 dd 94 3e 95 3a 75 bf 2a 0a ce 3e 05 b8 0a 3f
       0.29075158 -0.95792514 0.4024213 0.5418704
000350 10 f5 63 be 14 e5 e7 3f ec 93 fd 3f cd 47 3d c0
       -0.22261453 1.8116784 1.9810767 -2.9575074
000360 b9 06 25 bf 1b fa e5 bd bc 3c 31 3f f8 41 f7 3e
       -0.6446338 -0.112293445 0.692333 0.48292518
000370 4e 40 09 3f 34 80 30 3b ad 68 4b bf ba e0 5a bf
       0.53613746 0.0026931884 -0.794566 -0.85499156
000380 67 8c 62 be cd f6 ce bd e0 58 58 bf 22 8d 8a bf
       -0.22123872 -0.10105667 -0.8451061 -1.082432
000390 1b 77 e1 3f 84 6a 8e bf 29 bf 1e 3e fe 3d b7 bd
       1.7614473 -1.1126256 0.1550261 -0.08947371
0003a0 f6 92 16 3f b3 a5 88 bf 3c ab bc 3e 2b 8c 92 3d
       0.58817995 -1.0675567 0.3684939 0.07155641
0003b0 98 be 08 bc d8 4d 0a be a9 de 09 bf 65 80 db 3e
       -0.008346222 -0.13506258 -0.5385538 0.42871395
0003c0 d2 9b 05 3f d6 83 f5 3f fc 6a 74 3c 42 b2 68 be
       0.5219089 1.9180858 0.014918085 -0.2272425
0003d0 0c 9f 5e 3f c6 83 3c bf 22 22 af be ca 0d b7 3e
       0.86961436 -0.7363857 -0.3420573 0.35752708
0003e0 5b 31 13 bf f5 09 f1 be 3c d9 75 be 57 52 18 bf
       -0.57497185 -0.4707791 -0.2400865 -0.5950064
0003f0 79 1e 85 3f 42 eb a4 be 0c fb d1 bf b5 65 48 3f
       1.0399925 -0.32210737 -1.6404738 0.7828019

item.weight f4 [5064, 10]
000000 b1 35 c1 bf 11 c5 07 bf 95 ed c5 3e 62 d3 2c 3e
       -1.509451 -0.53035074 0.38657823 0.16877511
000010 61 57 41 bf c0 e1 c5 be 26 d2 2e 3f f4 1f b9 3f
       -0.75523955 -0.38648796 0.6828941 1.4462876
000020 1e 3c bf be 1b 80 52 bf 32 2d 0e bf 47 1f 65 3f
       -0.37350553 -0.82226723 -0.5553771 0.8950085
000030 34 87 13 3f 76 46 8d be 77 b4 4a bf af a1 9d be
       0.5762818 -0.2759282 -0.7918162 -0.30787417
000040 bf 75 2d bd 2a 78 42 bd fd c2 73 be f1 a2 0f bf
       -0.04234862 -0.04747788 -0.23804851 -0.56108004
000050 48 a2 cf 3e 49 de 87 be 0c bc 0a c0 9a 4c 95 3d
       0.40553498 -0.26536778 -2.1677275 0.07290001
000060 7d fb 21 bf 10 36 c2 bd 93 9d 86 bf 93 0b 97 3f
       -0.63274366 -0.09482968 -1.0516838 1.1800407
000070 10 e6 99 bf 23 33 31 bf c4 0e 9a be e1 b7 da bf
       -1.2023335 -0.69218653 -0.3008939 -1.7087365
000080 d1 be 49 3f 7c 51 1e 3f 96 d6 bb 3f 88 5a 16 bf
       0.7880679 0.61843085 1.4674861 -0.5873189
000090 36 e4 26 c0 2d 65 f0 bf dc 37 20 40 38 96 8b bf
       -2.607679 -1.8780876 2.5034094 -1.0905218
0000a0 6c 54 59 bf 8d 94 b9 3f 9e 65 34 3f 15 dd d3 be
       -0.8489444 1.4498459 0.70467556 -0.4137961
0000b0 2d a8 fe be 98 e0 3f 3f 20 21 58 bf f6 dc 33 3f
       -0.49737683 0.7495208 -0.84425545 0.70259035
0000c0 0b 26 1a bf db b5 e9 bf dd c9 8e 3e e9 bc 00 3f
       -0.602143 -1.8258623 0.27888384 0.50288254
0000d0 32 04 f1 3e e8 84 3a be 93 fa ac bf fc 59 8c 3f
       0.47073513 -0.18214762 -1.3513969 1.0964961
0000e0 c3 d3 bc 3f f3 fa 48 3f 11 b9 70 bf 99 8d 8a bf
       1.4752125 0.7850792 -0.9403239 -1.0824462
0000f0 21 d9 4c bf a5 fe fe 3e 4a 0e ec 3e 8c 66 88 bf
       -0.8001881 0.49803653 0.46104652 -1.0656295
000100 10 f0 b3 bd e5 61 81 3e 3f 2a 31 be 62 18 7e 40
       -0.08786023 0.2527 -0.17301272 3.9702382
000110 55 88 9f be 98 15 80 3e cd 08 24 bf da f4 bc bf
       -0.311587 0.25016475 -0.6407593 -1.4762223
000120 35 e1 12 bf dd 91 ba 3f 23 0a ea be a5 38 40 3f
       -0.5737489 1.4575764 -0.4571086 0.7508643
000130 c9 0f 8a bf 15 1a 0b 40 4f db b0 bf fc d0 af bf
       -1.0786067 2.173467 -1.3816928 -1.3735652
000140 83 9d 12 3f 29 8d 9f 3d 8f 53 f9 bd 78 67 8e bf
       0.57271594 0.07790596 -0.12174141 -1.1125326
000150 25 c3 20 be 7d 73 be 3d be 89 1b 3f d8 56 9d 3f
       -0.15699442 0.092993714 0.6075705 1.2292128
000160 c9 83 31 bf 12 67 f4 be 4b f2 7d 3e 26 84 c6 3f
       -0.69341713 -0.47734886 0.24799459 1.5509079
000170 d9 a8 37 3f 40 35 09 bf 39 cb eb be e2 20 7d 3f
       0.71742016 -0.5359688 -0.46053484 0.988783
000180 3d bc 08 3f 47 cf e4 bf 71 b1 b5 3f 61 ed 2b bf
       0.5341223 -1.7875756 1.4194776 -0.67159086
000190 20 ce ea 3f 15 e6 6e 3f 29 a0 21 bf 18 ca ec bd
       1.8344154 0.9331983 -0.6313501 -0.11561984
0001a0 96 50 bf be 96 7f e3 be b8 9c 58 3e 28 dc 1e 3f
       -0.3736617 -0.44433278 0.21153533 0.6205468
0001b0 48 b8 b2 3f 45 34 fc 3a 72 ed e2 3f 82 73 d2 3f
       1.3962488 0.0019241652 1.7728713 1.64415
0001c0 87 49 5e 3f 8a fb 80 be 93 14 b4 3f b9 c1 8b be
       0.86830944 -0.2519191 1.4068779 -0.27296236
0001d0 bf ff bc be 63 f5 46 3d 2f ab b8 bf e2 a5 e8 3e
       -0.3691387 0.048573863 -1.4427241 0.4543906
0001e0 45 7b db be 73 db 86 bf 26 63 0e 3d a5 4d b6 be
       -0.42867485 -1.053572 0.034762524 -0.35606113
0001f0 0e fc 83 be df 74 1a be ef 3c 94 be a4 b2 1c bd
       -0.2577824 -0.15083645 -0.2895274 -0.038256302
000200 13 3e 2e 3d 9e a5 86 be 8d 8a 96 bf 51 c6 1e bf
       0.042539667 -0.2629823 -1.1761032 -0.62021357
000210 16 6c 68 3e da 7d f5 3d 7e 06 eb bf ff c0 82 be
       0.22697482 0.11986895 -1.8361356 -0.2553787
000220 32 f2 64 3f f2 e3 32 bf 30 99 ac bf 77 3e b8 3f
       0.8943206 -0.69879067 -1.3484249 1.4394063
000230 77 8c 0d 3e 36 9c 02 c0 5c 46 0d 3f e9 11 13 3d
       0.13823114 -2.0407844 0.55185485 0.035905752
000240 d8 33 a5 3f ea ed 5e bf 4d 6a 92 bf b5 2b e9 3e
       1.2906446 -0.8708178 -1.143869 0.45541158
000250 ca b7 a4 3c 27 73 c0 bf dc cc 23 bf e4 d1 57 3f
       0.020107169 -1.5035142 -0.63984466 0.8430464
000260 6e 75 e5 3f 35 5b 8d be 74 0e 02 be b4 ff 02 3e
       1.7926462 -0.27608648 -0.12700826 0.12792856
000270 eb 8d 49 3d 0b 79 7c bf c5 dd 5f 3f 46 8a 0d 3f
       0.04920761 -0.98622197 0.8744777 0.55289114
000280 6f 26 b1 3f 47 f7 6e be 92 bb 60 3f a2 68 8a bf
       1.3839854 -0.23336516 0.8778621 -1.0813181
000290 d6 fa 56 3f 1f 25 2c 3f 0f 6a 88 be 34 77 14 3f
       0.83976495 0.6724414 -0.26643416 0.5799439
0002a0 6e 04 13 3f b1 97 25 3e e5 12 96 3e 7f 79 aa 3d
       0.57428634 0.16171147 0.2931129 0.08323955
0002b0 e6 a5 5a 3e 04 9e 9f bf fd 13 96 bf d3 22 7c 3f
       0.21352348 -1.2470098 -1.172485 0.9849064
0002c0 b6 10 17 3f 04 a6 83 bf d5 61 71 3f 09 eb 33 bf
       0.59009874 -1.0285039 0.94289905 -0.7028051
0002d0 71 57 1e c0 c9 10 c2 ba 6a 06 61 3f a9 42 2a 3f
       -2.474087 -0.0014806028 0.8790041 0.66507965
0002e0 28 2d 2a 40 a8 45 3f 3f cc dc fc 3d da 48 47 3b
       2.659006 0.7471566 0.12346801 0.0030408413
0002f0 16 8b 89 bd cc 6e 77 3e 69 01 d2 3e 71 b3 bc 3f
       -0.06715982 0.2416336 0.410167 1.4742261
000300 7d b0 53 bf bb ae 41 3e 50 a1 e0 3f 10 61 3e 3f
       -0.82691175 0.1891431 1.7549229 0.74366856
000310 26 db 77 bf 5f 0f d7 3e 53 fc 00 40 12 57 d9 be
       -0.9681877 0.42003915 2.0154006 -0.42449242
000320 fb 31 01 bf 6f f6 42 bf 0c 8e 86 be 5b 19 2a bf
       -0.5046689 -0.7615728 -0.26280248 -0.6644494
000330 59 ea dc be f8 21 2a bf 6e bd 39 3f 49 b1 9b be
       -0.43147543 -0.6645808 0.7255467 -0.30408695
000340 ff 55 d3 be 43 d4 ad bf f1 53 ab be 7a ea 82 bf
       -0.41276547 -1.3580402 -0.3346248 -1.0227807
000350 be dd 55 3e 5a 79 7c 3f 02 53 0d 3d 70 01 05 40
       0.20885369 0.9862267 0.03450299 2.0782127
000360 bf 5c 1e 3f cd 4e 3f 3d 3f 10 89 bf 0a 6f 6a be
       0.6186027 0.04670601 -1.0708083 -0.2289392
000370 98 38 ab 3e d9 ac f4 3d b2 49 11 bf 23 74 8c 3f
       0.33441615 0.119470306 -0.56753075 1.0972942
000380 52 21 e2 be da 68 88 3f 18 8a 4b bf b2 4b 45 bf
       -0.44166046 1.0656998 -0.7950759 -0.77068627
000390 21 b2 80 be 15 2b ed be 6a 7f 53 3f d7 74 30 3f
       -0.25135902 -0.4632193 0.82616293 0.68928283
0003a0 9f e7 64 bf a4 51 79 3e c9 7d d5 3c 9d 0d 02 3e
       -0.89415926 0.2434755 0.026060956 0.12700506
0003b0 17 a1 b5 3e 76 81 30 bd d0 95 62 3f b4 87 1c 3e
       0.35474464 -0.043092214 0.88509846 0.15286142
0003c0 32 cf a0 be bd 59 63 3f 82 7b 0d 3f 63 6d c2 3d
       -0.31408077 0.88808805 0.5526658 0.0949352
0003d0 6a ff 2e be 62 df a6 bd 81 e3 2f bd d1 39 1d 3e
       -0.1708962 -0.08148076 -0.042941574 0.15354086
0003e0 a9 7d 5e bf cb 44 1d 3f 76 f0 8e bf 3c 52 1e bf
       -0.8691049 0.61433095 -1.1167133 -0.6184423
0003f0 f5 8f 0c 3f ce 57 ff 3e df dc 79 3f 0d 44 f2 3e
       0.5490716 0.49871677 0.9760265 0.47317544
